Banana_saved_model.pth (torch_old, 28391 bytes, 6 tensors)

fc1.weight f4 [64, 37]
0	0x3dca4c99	0.09877891
1	0xbde34418	-0.11096972
2	0xbdfcd1c3	-0.123446964
3	0x3ca5a1a4	0.020218678
4	0xbe6dc49d	-0.23219533
5	0xbc5aef33	-0.013362694
6	0x3ddcdb9e	0.10784076
7	0x3d842c7f	0.064537995
8	0x3df738db	0.12071391
9	0x3df484c3	0.11939385
10	0xbe17ba72	-0.14817217
11	0xbce1a7dc	-0.027545862
12	0xbd029259	-0.03187785
13	0xbd0ceb36	-0.034404002
14	0xbd4339cd	-0.047662545
15	0x3dab5695	0.083661236
16	0xbd47683b	-0.048683386
17	0xbbfd3422	-0.007727162
18	0x3def11c1	0.11673308
19	0x3e54e3aa	0.20789972
20	0x3b3aede9	0.0028523153
21	0x3e054e42	0.13018134
22	0x3e57b47e	0.21064946
23	0x3dc5159b	0.096232615
24	0x3df728b3	0.1206831
25	0xbd1824c8	-0.037144452
26	0x3df48a42	0.11940433
27	0xbcf9adc4	-0.030478366
28	0xbddc05fc	-0.10743329
29	0x3dc7e25b	0.09759971
30	0x3e38ae64	0.18035275
31	0xbdae72cb	-0.08517989
32	0xbe6fafbc	-0.23406881
33	0xbe9ef5da	-0.31046945
34	0xbf93ccb1	-1.1546842
35	0xbd2673f6	-0.040637933
36	0x3aad938f	0.0013242828
37	0x3e22f011	0.1591189
38	0x3ce9049f	0.028444586
39	0x3d4182f1	0.047244016
40	0x3e43815a	0.19092312
41	0xbcd6bd1f	-0.026213227
42	0xbc91cc08	-0.017797485
43	0xbc375b03	-0.0111911325
44	0xbc401524	-0.01172379
45	0xbdc5ecfc	-0.09664342
46	0x3d9b8716	0.07594125
47	0x3d3c1463	0.04591788
48	0x3c2b022f	0.010437532
49	0xbd207121	-0.039170388
50	0x3e6d6aea	0.23185316
51	0x3e1c4b8e	0.15263197
52	0x3e4ab26f	0.1979463
53	0xbe845e72	-0.25853306
54	0x3db1bdfd	0.086788155
55	0xbdf82ec0	-0.12118292
56	0xbf506fdf	-0.814207
57	0xbd69d4b7	-0.057087626
58	0xbdd4a153	-0.10382333
59	0xbb977dfe	-0.0046231737
60	0xbe120f8d	-0.14263745
61	0xbc6d1956	-0.014471373
62	0xbddad398	-0.106848896
63	0x3d36d37a	0.044635274
64	0x3dbd080b	0.0923005
65	0xbbe91d46	-0.0071140854
66	0xbe879e74	-0.26488078
67	0xbd042fed	-0.032272268
68	0x3e8b6aec	0.27230012
69	0x3d94a713	0.072584294
70	0xbd58a706	-0.05289366
71	0xbd297132	-0.041367717
72	0xbb091acd	-0.0020920516
73	0x3c44b8bd	0.012006936
74	0x3d5a017b	0.053224068
75	0x3e3554f1	0.17708184
76	0x3da8fb30	0.08251035
77	0x3e12e4eb	0.14345138
78	0xbca6d589	-0.020365493
79	0xbeb3c4e7	-0.35111162
80	0x3d2cf1c3	0.04222275
81	0x3e52220c	0.205208
82	0x3e7f9eb9	0.24962892
83	0xbefbdaa0	-0.49190235
84	0xbcaa00c2	-0.020752314
85	0xbd941c71	-0.07231987
86	0xbdd6d338	-0.104895055
87	0x3e057917	0.13034473
88	0x3e4e2ad7	0.2013353
89	0xbde73c22	-0.11290766
90	0x3e2f31b7	0.17108808
91	0x3dd413fc	0.10355374
92	0x3dd85404	0.105629
93	0x3d071ac3	0.032984506
94	0xbe4c962f	-0.19979165
95	0xbe040099	-0.12890853
96	0x3cb11cff	0.021620272
97	0x3e0a6454	0.13514835
98	0x3e19b008	0.15008557
99	0xbec537a3	-0.3851901
100	0x3e3bb1d5	0.18329556
101	0x3e9ed1d9	0.31019476
102	0xbb3be7cc	-0.0028672097
103	0xbeb4f322	-0.35341746
104	0xbe05d60e	-0.13069937
105	0xbe1b8342	-0.1518679
106	0xbda30c2f	-0.07961308
107	0xbdd2ace0	-0.102868795
108	0x3d458ddd	0.048230994
109	0x3c529ebe	0.01285523
110	0xbb5e8a08	-0.0033956785
111	0x3efa89a4	0.48933136
112	0xbf04baaa	-0.51847327
113	0xbe9b51dc	-0.3033589
114	0xbeca59f4	-0.39521754
115	0xbffcbdd3	-1.974543
116	0x3c28b276	0.010296455
117	0xbd2801b2	-0.04101724
118	0x3d5586af	0.052130397
119	0x3d8b8cde	0.06813978
120	0x3d84c09e	0.06482051
121	0x3d107a4a	0.035272874
122	0x3d285a87	0.04110196
123	0x3d5d45ce	0.05402165
124	0x3cf20a0b	0.029545804
125	0xbb2aaf03	-0.0026044257
126	0xbbaa95c6	-0.0052058427
127	0x3d98dbf3	0.07463827
128	0xbd0090e4	-0.03138818
129	0xbd319697	-0.043356504
130	0xbd3fb4d4	-0.04680331
131	0x3d29d4fc	0.041462883
132	0xbc3eff05	-0.011657481
133	0x3c497e62	0.012298198
134	0x3c9057eb	0.017620048
135	0x3d59aabf	0.05314135
136	0x3dac36d4	0.08408895
137	0x3d298d19	0.041394327
138	0x3d142394	0.036166742
139	0x3dae0c5a	0.084984496
140	0x3c475210	0.012165561
141	0x3d935c9d	0.07195399
142	0x3e1ff9d1	0.15622641
143	0x3db74f89	0.08950717
144	0x3d631bdd	0.055446494
145	0xbd67b966	-0.056573294
146	0x3bd6acba	0.0065513523
147	0x3c3bf4eb	0.011471967
148	0xbdacf5ec	-0.084453434
149	0xbdeb24b6	-0.114816114
150	0xbcd565ad	-0.02604946
151	0xbd9b5052	-0.07583679
152	0x3c5c2485	0.013436441
153	0x3e31c692	0.17360905
154	0x3e0edea5	0.1395212
155	0xbddf3e3a	-0.10900541
156	0xbe08edfb	-0.13372032
157	0xbef5de1a	-0.48021013
158	0x3d1c773d	0.038199652
159	0xbda8d6e8	-0.08244115
160	0xbd581d1c	-0.052762136
161	0x3b9c6bad	0.004773578
162	0xbe242582	-0.16029933
163	0xbe031a02	-0.1280289
164	0xbc5b7dc6	-0.013396686
165	0xbd06a7c7	-0.03287485
166	0x3d025e40	0.031828165
167	0x3e3cffaf	0.1845691
168	0xbdb5c25a	-0.0887496
169	0x3d622748	0.055213243
170	0x3cd05d41	0.025435092
171	0x3dbdd77f	0.09269618
172	0x3e1a83e6	0.15089378
173	0x3e75460f	0.23952506
174	0xbdb78eb1	-0.08962763
175	0xbe14785f	-0.14499043
176	0xbe0bc4f9	-0.13649358
177	0xbf2039e0	-0.6258831
178	0x3cb04e3c	0.02152168
179	0xbd58225b	-0.05276714
180	0x3df1f133	0.11813583
181	0x3c1ded63	0.009639117
182	0x3e8cc4e2	0.2749396
183	0x3c000101	0.007812739
184	0x3d37fcff	0.04491901
185	0x3d448ac6	0.047983907
186	0xbc0e54e4	-0.008687232
187	0xbcade55a	-0.021227527
188	0x3cc0cfc2	0.023536567
189	0x3d6c4610	0.057684004
190	0x3e90dbe4	0.28292763
191	0xbccdf04e	-0.025139
192	0xbe3bc37e	-0.18336293
193	0xbe863151	-0.262095
194	0xbf8cee35	-1.1010195
195	0xbe069c1b	-0.13145487
196	0xbcd17f21	-0.025573315
197	0x3b89c04e	0.0042038327
198	0xbc94aa9c	-0.01814776
199	0x3d86532c	0.065588325
200	0x3ad1e185	0.0016012645
201	0x3dba2f06	0.09091
202	0xbd8301c2	-0.0639682
203	0x3c00e922	0.007868083
204	0x3ce05ae7	0.027387096
205	0x3e2f0ff8	0.17095935
206	0x3d633d0b	0.055478137
207	0x3d1dfa8e	0.038569026
208	0x3d94940b	0.072547995
209	0xbdedf71d	-0.11619399
210	0x3d31a3d5	0.043369133
211	0xbce56d93	-0.02800635
212	0xbd4446cf	-0.04791909
213	0x3e7090fd	0.23492809
214	0x3e38836e	0.18018886
215	0x3bbac11a	0.005699289
216	0x3e0abf28	0.13549483
217	0x3b74b018	0.0037336405
218	0xbd8e5694	-0.06950107
219	0xbe701eda	-0.23449269
220	0xbd2ac9e1	-0.041696433
221	0x3c6e48f2	0.014543759
222	0xbe4c66d4	-0.19961101
223	0xbc7d34ee	-0.015454514
224	0x3cfd1091	0.030891689
225	0x3d415b31	0.047206108
226	0x3c6b4097	0.014358661
227	0xbe5eacd9	-0.21745624
228	0xbe2439f0	-0.16037726
229	0xbbb0dfc5	-0.005397769
230	0x3e058404	0.13038641
231	0x3eba24ae	0.3635611
232	0x3d7f830d	0.06238084
233	0x3dbfa729	0.09358055
234	0xbe91866e	-0.28422874
235	0x3dd2ab1d	0.102865435
236	0x3e8303ec	0.2558893
237	0xbe3202b8	-0.1738385
238	0xbe0e7af0	-0.13914084
239	0x3d86ac07	0.0657578
240	0x3d65657d	0.05600499
241	0x3e310748	0.17287934
242	0xbdfa7335	-0.12229005
243	0xbddde700	-0.108350754
244	0xbdd83821	-0.10557581
245	0x3dd572dc	0.10422298
246	0x3e3aa5e8	0.1822735
247	0xbe8ea00b	-0.27856478
248	0x3c8d9676	0.01728366
249	0xbd533c92	-0.051571436
250	0xbce8addc	-0.028403215
251	0x3e5e0454	0.21681339
252	0xbd13caf5	-0.036082227
253	0xbd77bd35	-0.060483176
254	0xbde8bb87	-0.11363893
255	0x3dcd304c	0.100189775

fc1.bias f4 [64]
0	0x3e142782	0.14468196
1	0xbb512020	-0.0031910017
2	0xbe0a1272	-0.13483599
3	0x3c352883	0.011057022
4	0x3e4841f1	0.19556405
5	0x3b6f32b8	0.0036498737
6	0xbe1e32ce	-0.15449068
7	0x3dda9fb4	0.10674992
8	0x3d0c9959	0.03432593
9	0xbe832885	-0.2561685
10	0x3dd52690	0.10407746
11	0x3e3f7cfb	0.1870002
12	0x3ddd9b35	0.10820619
13	0x3dec309d	0.1153271
14	0xbe075aea	-0.13218275
15	0x3c88a478	0.016679987
16	0x3d8b5880	0.068039894
17	0x3cff62a0	0.031174958
18	0x3c70e903	0.014703992
19	0xbe798775	-0.24368079
20	0xbe2a4c91	-0.1663077
21	0xb8b221f6	-8.494027e-05
22	0x39d3f562	0.0004042788
23	0xbdfb5629	-0.12272293
24	0xbdcd0cc6	-0.10012202
25	0x3d441bf2	0.047878213
26	0xbca8ba3d	-0.020596618
27	0xbe081f4c	-0.13293189
28	0x3e361016	0.17779574
29	0x3e2322fb	0.15931313
30	0xbd7950fb	-0.060868245
31	0xbe4a2365	-0.19740064
32	0x3e171abf	0.14756297
33	0x3d8bf440	0.06833696
34	0xbe1fc2dc	-0.15601677
35	0x3d9f9e6b	0.07793888
36	0xbcf30131	-0.029663654
37	0x3c67a234	0.014137793
38	0xbe2517ff	-0.16122435
39	0xbdcdc8a3	-0.10048034
40	0xbdbdbe32	-0.092647925
41	0xbcd231cb	-0.025658509
42	0xbdecb16b	-0.11557277
43	0x3deb9943	0.11503842
44	0x3c15b522	0.009137424
45	0xbdcbd4f6	-0.099527285
46	0x3d6ef2f9	0.058337186
47	0xbe50eab1	-0.20402028
48	0xbde7a1a5	-0.11310128
49	0x3c348c2b	0.011019747
50	0xbe17361a	-0.14766732
51	0x3d207337	0.039172377
52	0xbc6417dc	-0.013921704
53	0xbdbd3c9c	-0.09240076
54	0xbe22b444	-0.15889078
55	0xbd35761a	-0.044302084
56	0x3dc56393	0.09638133
57	0xbd0e6b56	-0.034770332
58	0xbe02ed95	-0.12785943
59	0xbd944fae	-0.0724176
60	0x3d799954	0.06093724
61	0x3d0e1466	0.034687422
62	0x3d0d927f	0.034563538
63	0xba93a4a3	-0.0011264276

fc2.weight f4 [64, 64]
0	0xbca8c70b	-0.020602724
1	0x3caed8ac	0.021343552
2	0x3da0e4f1	0.07856167
3	0x3dbe9f86	0.093077704
4	0x3d8fe331	0.07025755
5	0xbd5222da	-0.05130277
6	0xbd4644b7	-0.048405375
7	0xbd91b4cc	-0.071145624
8	0xbc56ffcf	-0.013122513
9	0x3bb752ba	0.0055945786
10	0xbd5ff73e	-0.054679148
11	0xbdb7ed95	-0.08980862
12	0xbdedca15	-0.1161081
13	0x3d81b1c7	0.063327365
14	0xbd56ded3	-0.052458595
15	0xbd46829b	-0.0484644
16	0xbddbdaba	-0.10735078
17	0xbdb238f3	-0.087022685
18	0xbd1c8311	-0.038210932
19	0x3d42210a	0.04739479
20	0xbd9a3c15	-0.07530991
21	0xbd5d757e	-0.054067127
22	0x3d633e10	0.05547911
23	0xbdd24dd9	-0.102687545
24	0xbe078eac	-0.13238019
25	0xbd096c8d	-0.033550788
26	0x3d734415	0.0593911
27	0x3ca92d12	0.020651374
28	0xbcd08a39	-0.025456535
29	0xbce271d7	-0.027642174
30	0x3d7f9159	0.062394474
31	0xbd7dc5f4	-0.06195636
32	0x3d1dd4f9	0.038533185
33	0x3b9be6d8	0.0047577433
34	0xbd2fb2f3	-0.04289527
35	0x3a0d57c2	0.00053918
36	0xbe096d95	-0.13420708
37	0x3d927af5	0.071523584
38	0x3d867406	0.065650985
39	0xbdd8ee7c	-0.10592362
40	0xbe132a6f	-0.14371656
41	0xbd5d14a7	-0.053974774
42	0x3d8d0c85	0.068871535
43	0xbde660fa	-0.112489656
44	0x3d93fa84	0.072255164
45	0xbdc206ec	-0.094739765
46	0xbe100612	-0.14064816
47	0x3d45b200	0.048265457
48	0xbdaee1aa	-0.08539136
49	0xbd164163	-0.03668345
50	0xbd835324	-0.06412342
51	0xbce88e29	-0.0283881
52	0xbe076829	-0.13223328
53	0xbdeacdb4	-0.11465016
54	0x3d5c18d0	0.0537346
55	0xbd2d8969	-0.042367373
56	0xbd9a6d50	-0.07540381
57	0xbd2ac359	-0.041690204
58	0xbe1366cb	-0.14394681
59	0x3d07e810	0.033180296
60	0x3c272303	0.010201219
61	0x3d81248a	0.063057974
62	0xbe08ff31	-0.13378598
63	0xbd1163a1	-0.035495404
64	0x3db32658	0.08747548
65	0x3ca80cb4	0.02051387
66	0x3c97e611	0.018542321
67	0x3ef08690	0.46977663
68	0x3cc0efc2	0.023551825
69	0x3e0e16e3	0.13875918
70	0xbe84fa5b	-0.25972256
71	0x3e613c05	0.21995552
72	0x3cd719b1	0.026257368
73	0xbdd007c7	-0.101577334
74	0xbba041f4	-0.0048906747
75	0x3e99a49d	0.30008402
76	0xbe6de296	-0.23230967
77	0x3da61c67	0.08110886
78	0x3d67dcba	0.056606986
79	0xbd8299ba	-0.06376977
80	0x3e19e059	0.15026988
81	0x3dbaf657	0.09129017
82	0x3e4e589a	0.20150986
83	0x3c370d37	0.011172584
84	0xbd0d0589	-0.034429107
85	0xbe569f69	-0.20959248
86	0xbb80e8f6	-0.003934021
87	0x3d9b5a1a	0.07585545
88	0xbd86fd75	-0.06591312
89	0x3d658f8d	0.056045104
90	0x3db8154f	0.08988439
91	0xbcb482df	-0.02203506
92	0xbd0cdc3a	-0.034389712
93	0x3da4ec37	0.08052867
94	0x3db3259b	0.08747407
95	0x3d0921cf	0.033479508
96	0xbe6b0da5	-0.22954424
97	0x3e119ac4	0.14219195
98	0x3d3d37bb	0.046195727
99	0x3e0fccc5	0.14042957
100	0x3d91e3bb	0.07123514
101	0xbdb4636f	-0.08808028
102	0x3e937790	0.28802156
103	0xbe770a4c	-0.24125022
104	0x3d4da960	0.050210357
105	0xbd755326	-0.05989375
106	0x3d0391b6	0.032121383
107	0xbd6efc12	-0.05834586
108	0x3d764de6	0.060132883
109	0x3d424081	0.047424797
110	0xbe3b87b3	-0.18313484
111	0xbcf81963	-0.030285543
112	0xbd6b3613	-0.057424616
113	0xbe089b5b	-0.13340513
114	0xbde93bc7	-0.11388355
115	0x3df86846	0.121292636
116	0xbe25c6ee	-0.16189167
117	0x3db6e8d4	0.08931127
118	0xbe9f03d7	-0.31057617
119	0xbd7bea6b	-0.061502855
120	0xbdeebc35	-0.116569914
121	0xbdf3834d	-0.11890278
122	0x3dadbe34	0.08483544
123	0x3e6cd788	0.23129094
124	0xbdf5b573	-0.11997499
125	0xbd9fb79c	-0.077986926
126	0xbb8a894b	-0.0042277924
127	0x3d4f2c94	0.050579622
128	0xbe3eebbd	-0.18644615
129	0xbddb71ad	-0.10715041
130	0xbe26e01e	-0.16296431
131	0xbde0f4bd	-0.1098418
132	0x3d6a0575	0.05713411
133	0x3d966775	0.073439516
134	0xbdb3b4f6	-0.0877475
135	0xbe26c7ee	-0.16287205
136	0x3dc79a92	0.09746279
137	0xbe724fb6	-0.2366322
138	0x3d9f53a6	0.077796265
139	0x3e22847c	0.15870851
140	0xbba8a09a	-0.0051460983
141	0x3e23d651	0.15999724
142	0xbde311ed	-0.110874034
143	0x3d64660d	0.055761386
144	0xbd9888fa	-0.07448001
145	0x3d8dadb6	0.06917898
146	0x3dc3ba22	0.095569864
147	0xbe897d69	-0.26853493
148	0x380e02b8	3.385797e-05
149	0x3d777157	0.060410824
150	0x3d288963	0.041146647
151	0xbbce0094	-0.00628669
152	0xbd8b67ca	-0.068069056
153	0x3e185480	0.14875984
154	0x3e627b1f	0.2211728
155	0x3e7dc378	0.24781597
156	0x3dec57d1	0.11540187
157	0x3e46d62b	0.19417636
158	0x3d18136d	0.0371279
159	0xbe09402a	-0.13403383
160	0xbd2da6de	-0.042395465
161	0xbd891023	-0.06692531
162	0xbea8df99	-0.3298309
163	0x3e23d884	0.16000563
164	0x3ce10166	0.027466487
165	0x3d5e30c7	0.054245736
166	0x3e4e769f	0.20162438
167	0x3e36345b	0.1779341
168	0x3ed35e32	0.41282803
169	0xbe55ff32	-0.2089813
170	0x3defbce4	0.1170595
171	0xbd48a62e	-0.048986606
172	0x3d5fd568	0.05464688
173	0x3d8c21e5	0.06842402
174	0xbd36bf06	-0.044615768
175	0xbce94cc9	-0.028478997
176	0x3c71b338	0.014752202
177	0xbe04f692	-0.12984684
178	0xbe191ea9	-0.14953102
179	0x3d38ea0e	0.045145087
180	0x3a21ff9d	0.0006179752
181	0x3df60ad0	0.12013781
182	0xbe41066a	-0.18850103
183	0xbd85adb1	-0.0652727
184	0x3d5f361e	0.05449497
185	0xbe2c9843	-0.16854958
186	0x3e1ee93b	0.15518658
187	0x3da19e73	0.0789155
188	0x3e01944d	0.12654229
189	0xbccf52cb	-0.025308033
190	0x3cd20203	0.025635725
191	0xbd98e384	-0.0746527
192	0xbe492262	-0.19642022
193	0xbe24b118	-0.16083181
194	0xbddcbc67	-0.107781224
195	0xbe367d33	-0.17821197
196	0x3d9c1812	0.076217785
197	0x3d1c9804	0.03823091
198	0xbd5e1c31	-0.054226104
199	0xbdfcc002	-0.1234131
200	0xbe398c56	-0.1811994
201	0x3d640830	0.05567187
202	0xbe3a545b	-0.18196242
203	0x3f02e60d	0.5113228
204	0xbeabf3fb	-0.3358458
205	0xbd81c830	-0.06337011
206	0xbe31ff3d	-0.17382522
207	0xbe3d3b67	-0.18479691
208	0x3dcecafd	0.10097311
209	0x3c496764	0.012292717
210	0xbda5e2b6	-0.08099882
211	0x3e31ba30	0.17356181
212	0x3d6b666e	0.05747073
213	0x3da6e121	0.08148409
214	0xbdf92a11	-0.12166227
215	0x3c913c53	0.01772896
216	0x3c2cb0cd	0.0105401995
217	0xbda14e92	-0.07876314
218	0xbd8d251e	-0.06891845
219	0xbe6276c9	-0.22115625
220	0xbde0e6bb	-0.10981508
221	0xbea40ce1	-0.32041076
222	0xbda90da3	-0.08254554
223	0x3be5368e	0.006995029
224	0xbe26937d	-0.162672
225	0xbdbb150d	-0.091348745
226	0x3d57179f	0.05251276
227	0xbd1ac4ac	-0.037785217
228	0xbd80639b	-0.06268998
229	0xbe7cbbb0	-0.24680972
230	0xbd3155fd	-0.043294895
231	0xbd4719d0	-0.0486086
232	0xbea9b1b6	-0.33143395
233	0xbced52bf	-0.02897012
234	0x3e14622b	0.14490573
235	0xbdc8122a	-0.097690895
236	0x3b9cbaca	0.004783009
237	0xbca17298	-0.019707963
238	0xbd5d4fd8	-0.054031223
239	0xbcebfdf1	-0.028807612
240	0x3cd5769f	0.02605754
241	0x3dae6319	0.08514995
242	0xbe80a04d	-0.251223
243	0x3d1454c8	0.036213666
244	0xbdcc4da6	-0.09975748
245	0xbe623575	-0.22090705
246	0x3d5432ad	0.05180614
247	0xbc78d381	-0.015187145
248	0xbe7d3f51	-0.24731185
249	0x3cbdee5f	0.023184953
250	0xbe699307	-0.22809993
251	0xbddfd55f	-0.10929369
252	0xbe87fc4e	-0.2655968
253	0xbe8605b8	-0.26176238
254	0xbeaeeb2a	-0.3416379
255	0xbe408b4e	-0.1880314

fc2.bias f4 [64]
0	0xbdae5dc4	-0.08513978
1	0x3c88ff9c	0.016723447
2	0x3e13bc9b	0.14427416
3	0x3d93591d	0.071947314
4	0x3e261016	0.16217074
5	0xbde9b4e0	-0.11411452
6	0xbe0a679e	-0.1351609
7	0xbd881e75	-0.06646434
8	0x3e8e29af	0.27766177
9	0x3ecdb27b	0.40175232
10	0x3c1ddfbe	0.009635864
11	0x3e709a60	0.2349639
12	0x3ea29812	0.31756645
13	0xbe10b2f8	-0.14130771
14	0xbded0d30	-0.11574781
15	0x3d4a1688	0.049337894
16	0x3c942fad	0.01808914
17	0x3bc5975f	0.0060300077
18	0xbe2f9ff2	-0.17150858
19	0x3dbd979e	0.09257434
20	0x3ea9b92b	0.33149084
21	0x3e9cf8ef	0.3065867
22	0xbdf7c8ff	-0.12098884
23	0xbdf1dce4	-0.1180971
24	0xbe42d1ad	-0.19025297
25	0xbd9988ca	-0.074967936
26	0x3e39c814	0.1814273
27	0xbe07dd1a	-0.13267937
28	0xbe1da4a2	-0.15394834
29	0x3e941168	0.2891953
30	0xbd6b17a1	-0.05739558
31	0xbc2c4528	-0.010514535
32	0xbda628b6	-0.08113234
33	0x3c64783f	0.0139446845
34	0x3dc279a1	0.09495855
35	0xbd91358b	-0.07090291
36	0xbd3b6ef5	-0.045760114
37	0xbe414fa0	-0.18878031
38	0x3e62a9c0	0.22135067
39	0xbd125144	-0.035722032
40	0xbe1e91d9	-0.15485324
41	0x3ef405ba	0.4766062
42	0x3e7d4bf0	0.24735999
43	0xbd7e87a0	-0.06214106
44	0x3d41fd1b	0.04736052
45	0xbdd32a96	-0.10310857
46	0x3e65584d	0.22396965
47	0xbe368cd5	-0.1782716
48	0x3d9f9e81	0.07793904
49	0xbb09bd93	-0.0021017536
50	0xbc2ee7ff	-0.010675429
51	0x3ea46f78	0.32116294
52	0xbdb6e61c	-0.08930609
53	0x3c584c64	0.013201807
54	0x3da8a431	0.08234442
55	0xbdb0fa4f	-0.086414926
56	0xbe382053	-0.1798108
57	0xbe3ba5ae	-0.1832492
58	0xbd8884b1	-0.06665934
59	0xbca0c04a	-0.01962294
60	0xbd270098	-0.04077205
61	0x3e497f7b	0.19677536
62	0x3df57d5e	0.119868025
63	0xbd8c8595	-0.06861416

fc3.weight f4 [4, 64]
0	0xbd3385e4	-0.04382886
1	0x3e1dacdb	0.1539797
2	0x3de5cd29	0.11220772
3	0x3f094c01	0.536316
4	0x3dd4f546	0.10398345
5	0xbe1c3622	-0.15255025
6	0x3df20851	0.118179925
7	0xbe7e5c12	-0.2483981
8	0x3e2fb3ef	0.17158483
9	0x3e00c976	0.12576851
10	0x3da6492c	0.08119425
11	0x3e80a200	0.25123596
12	0x3e0a2403	0.134903
13	0xbdd57022	-0.10421778
14	0xbc896ac8	-0.01677455
15	0x3e7d7d03	0.2475472
16	0xbea096ec	-0.31365144
17	0xbdda1542	-0.10648586
18	0xbe631c2f	-0.2217872
19	0x3e5452a2	0.20734647
20	0x3df26c4f	0.118370645
21	0x3e44f506	0.19234094
22	0xbe11a24a	-0.14222065
23	0x3a566f97	0.00081800803
24	0xbe96f1ec	-0.29481447
25	0xbe30c37c	-0.17262071
26	0x3dadaa05	0.08479694
27	0xbee255a8	-0.44205976
28	0xbe59fa9a	-0.21287003
29	0x3e5af89f	0.21383904
30	0xbe733318	-0.2374996
31	0x3e29c530	0.16579127
32	0x3d937430	0.071998954
33	0x3ee0ef79	0.43932703
34	0x3dd0160f	0.10160457
35	0x3da74cd7	0.08168953
36	0x3e8559d9	0.2604511
37	0x3e6780e7	0.22607766
38	0x3e48692f	0.19571374
39	0x3de85b6d	0.11345563
40	0xbbad73d6	-0.0052933497
41	0x3e0aa5a7	0.13539754
42	0x3db96bc5	0.090537585
43	0xbd3ac724	-0.04560007
44	0x3e459a75	0.19297202
45	0xbd8cecb3	-0.06881084
46	0x3e2df77e	0.16988942
47	0x3df13746	0.11778121
48	0x3ee041be	0.43800157
49	0x3e919201	0.28431705
50	0x3eca2903	0.39484414
51	0x3e40e738	0.18838203
52	0x3eb8cda2	0.36094385
53	0x3e956474	0.29178202
54	0x3de956ab	0.11393484
55	0x3e74a43d	0.23890777
56	0xbe4cb8a6	-0.19992313
57	0xbd147554	-0.036244705
58	0x3eb2f8d6	0.34955472
59	0x3edbe308	0.4294665
60	0xbd2fb9b9	-0.04290173
61	0x3e122786	0.1427289
62	0x3e670cea	0.2256352
63	0x3ea3d347	0.3199713
64	0x3dd03462	0.10166241
65	0x3c8093f7	0.015695555
66	0x3e1c778a	0.15279976
67	0x3efe5d5f	0.49680611
68	0x3e36f76e	0.17867824
69	0x3e01eedd	0.12688775
70	0x3e97e805	0.29669204
71	0xbe3b07c5	-0.18264683
72	0x3d3f50de	0.04670798
73	0x3e1b6199	0.1517395
74	0x3e1c4287	0.15259753
75	0x3e71823a	0.23584834
76	0x3c276300	0.0102164745
77	0x3e2bf068	0.16790926
78	0xbe02f19d	-0.1278748
79	0x3e2bfd93	0.1679595
80	0xbdcf05d8	-0.101085365
81	0x3d8a24c9	0.067452975
82	0xbe179993	-0.14804678
83	0x3e01ad22	0.12663701
84	0x3e1edb0d	0.15513249
85	0x3e6cedac	0.2313754
86	0xbe2bc3ac	-0.16773862
87	0x3de0ef33	0.10983124
88	0xbe785ffb	-0.24255364
89	0xbe5d74a4	-0.21626526
90	0x3d8392c1	0.064244755
91	0x3cd51f77	0.02601598
92	0xbea2c461	-0.3179045
93	0x3e66492e	0.22488853
94	0xbbcb56f8	-0.006205436
95	0x3e5e3c91	0.21702792
96	0x3e09cdae	0.13457367
97	0x3e87d0ef	0.2652659
98	0x3e046dca	0.12932506
99	0xbc2aa1d3	-0.010414558
100	0x3e8530ff	0.26013944
101	0xbec55a46	-0.38545436
102	0x3e6bfb4c	0.23045081
103	0x3eab0c1b	0.33407673
104	0x3e1ec4d6	0.15504774
105	0x3e330802	0.17483523
106	0x3e09c94a	0.13455692
107	0x3ac7bc51	0.0015238618
108	0x3e56dcbf	0.20982645
109	0x3d13b768	0.03606358
110	0x3e15dc19	0.14634742
111	0xbd4702e0	-0.048586726
112	0x3e97b789	0.29632214
113	0x3e5d66a2	0.21621183
114	0x3eaa16e2	0.33220583
115	0x3e1e29e6	0.1544567
116	0x3ee31e99	0.44359282
117	0x3ed415ca	0.41422874
118	0x3df4c5a2	0.11951758
119	0x3ed5b029	0.41735962
120	0xbd75c71f	-0.06000435
121	0xbebfcbda	-0.37460214
122	0x3e235af8	0.1595267
123	0xbeaa321b	-0.33241352
124	0xbd136fdd	-0.035995353
125	0x3cc11bf0	0.023572892
126	0x3e7b2af1	0.245281
127	0x3dc8aba7	0.09798365
128	0xbb19fa38	-0.002349509
129	0x3dfc1adb	0.1230981
130	0x3e72cadd	0.23710199
131	0x3e5b4d0a	0.21416107
132	0x3e4f1126	0.20221385
133	0x3d5850dd	0.052811492
134	0xbb9a94da	-0.0047174515
135	0xbc9d75f3	-0.019221282
136	0x3d8522cd	0.06500778
137	0x3e08bde9	0.13353695
138	0xbdaadf8d	-0.0834342
139	0x3e8454e6	0.25846022
140	0x3e249fae	0.16076538
141	0xbdb44ca6	-0.08803682
142	0xbeb2d5b1	-0.3492866
143	0x3e693584	0.22774321
144	0xbe461fed	-0.19348116
145	0x3e4da0b1	0.2008083
146	0xbe910c24	-0.28329575
147	0x3cc43bc3	0.023954278
148	0x3dc52451	0.096260674
149	0x3e7c34a1	0.24629451
150	0xbda10b3b	-0.0786347
151	0x3c21dfb1	0.009879992
152	0xbd10c46a	-0.035343565
153	0xbebc625d	-0.36793795
154	0x3e746675	0.2386721
155	0xbeb3769f	-0.35051438
156	0x3ee65ee0	0.4499426
157	0x3e966480	0.2937355
158	0xbda03620	-0.078228235
159	0x3cbfb1ae	0.023400154
160	0xbd331aa2	-0.04372657
161	0x3e59fc5b	0.21287672
162	0x3e3f1956	0.18662009
163	0x3ea901d8	0.3300922
164	0x3d12677c	0.03574322
165	0xbe9ffb0d	-0.31246224
166	0x3e272427	0.16322385
167	0x3e59a894	0.21255714
168	0xbebe759a	-0.37199098
169	0x3e3d4d09	0.18486418
170	0x3e2e6c2e	0.17033455
171	0x3e39b08a	0.1813375
172	0x3e0400f6	0.12890992
173	0xbe5e5cde	-0.21715114
174	0x3ddf5046	0.10903983
175	0x3d5eaf73	0.05436654
176	0x3ead6af1	0.33870652
177	0x3dae0b81	0.08498288
178	0x3ea26492	0.31717354
179	0x3e8a95fc	0.27067554
180	0x3b3fa33e	0.0029241587
181	0x3f00f09f	0.5036716
182	0x3e00a404	0.12562567
183	0xbe45b08f	-0.19305633
184	0xbd2cc785	-0.042182464
185	0xbd8537f0	-0.0650481
186	0xbc21f72f	-0.009885593
187	0xbe31e8cc	-0.17373961
188	0xbdae7bb5	-0.08519689
189	0x3e342d6c	0.17595452
190	0x3ec48920	0.38385868
191	0xbe00a8f0	-0.12564445
192	0x3d1cf098	0.038315386
193	0x3e913fd7	0.28369018
194	0x3df92ce3	0.121667646
195	0x3dc9a9e2	0.09846856
196	0x3d66b9da	0.056329586
197	0x3e54e34c	0.20789832
198	0xbecaaf6c	-0.3958696
199	0xbe1e34f5	-0.15449889
200	0x3db21fb6	0.08697455
201	0x3e3f5a88	0.18686879
202	0x3ead9455	0.3390223
203	0x3e22ea95	0.15909798
204	0x3ded5560	0.115885496
205	0xbe5d9206	-0.21637735
206	0xbe16cc11	-0.14726283
207	0x3e2cb1f6	0.16864762
208	0x3ead5125	0.3385097
209	0x3db865f3	0.0900382
210	0x3d55e37e	0.052218907
211	0x3e49a6d4	0.19692546
212	0x3dc31df8	0.095272005
213	0x3ec1013c	0.37696254
214	0xbea98e61	-0.3311644
215	0x3d7f6c75	0.062359292
216	0xbe1a985d	-0.15097184
217	0xbd2a785b	-0.041618686
218	0x3e5b1a47	0.21396743
219	0xbe5e3ea1	-0.21703579
220	0xbe6e97dd	-0.23300119
221	0x3e14107f	0.14459418
222	0xbe39f3fa	-0.18159476
223	0x3e1c6b16	0.15275225
224	0xbea33a10	-0.31880236
225	0x3ed23667	0.4105713
226	0x3d5ef816	0.054435812
227	0x3c568030	0.013092086
228	0x3e679f11	0.22619273
229	0x3e638626	0.22219142
230	0x3ea58c38	0.3233354
231	0x3d589003	0.052871715
232	0xbeb1efa0	-0.34753132
233	0x3e5822f6	0.21107087
234	0x3e777874	0.24167043
235	0xbe50ed29	-0.2040297
236	0x3e8b9483	0.27261743
237	0xbf227beb	-0.63470334
238	0x3d9d4c17	0.076805286
239	0x3c8011ea	0.015633542
240	0x3e49cb1c	0.19706386
241	0x3d832a62	0.06404568
242	0x3f1927ca	0.5982634
243	0x3e5a4121	0.21313907
244	0x3e0ed13b	0.13947003
245	0x3c0abcf6	0.008467903
246	0x3e58da8e	0.21177122
247	0x3ef8bdf2	0.48582417
248	0xbe5b5526	-0.214192
249	0xbeb410d1	-0.3516908
250	0xbddfe01d	-0.10931418
251	0xbc592cca	-0.013255307
252	0xbe7b43e8	-0.24537623
253	0x3dae019c	0.08496401
254	0xbe12974f	-0.14315532
255	0x3e206b3e	0.1566591

fc3.bias f4 [4]
0	0x3e8cccfa	0.27500135
1	0x3e8eb1d1	0.27870038
2	0x3e2416e2	0.16024354
3	0x3e27e899	0.16397323
